pose_classifier.tflite (tflite, 29472 bytes, 6 tensors)

arith.constant f4 [5]
000000 3f 37 56 3d 64 da 92 bd 87 19 75 be e2 9a 23 3e
       0.05229878 -0.07170561 -0.23935519 0.15977052
000010 4c 89 2f bd
       -0.042855546

arith.constant1 f4 [64]
000000 eb 0d d6 3d 1b 5c 07 3e 95 ba b1 3d d5 f7 be 3c
       0.104518734 0.13218729 0.08678166 0.023311535
000010 1f 1d 1d 3e 54 e8 e2 3d 51 c2 ad 3d f7 2e 68 3e
       0.1534314 0.11079469 0.084843285 0.22674166
000020 c2 90 32 3d f9 c7 f2 3c 24 28 58 3d 6b 20 9b 3d
       0.043595083 0.02963637 0.052772656 0.075745426
000030 1b 88 fa bc 28 5f 54 3d 43 d2 ba 3d 10 00 ff 3d
       -0.030582478 0.05184856 0.091221355 0.12451184
000040 68 04 a0 3d b8 38 18 3e b4 d3 2d 3c 5b c7 e8 3d
       0.078133404 0.14865386 0.010609556 0.11366149
000050 7a 68 c5 3d d7 5a 07 3e 07 f5 74 3e 40 49 ba 3d
       0.09639068 0.13218246 0.23921596 0.090960026
000060 66 b6 fb 3d 2a aa 3a bc 13 a9 65 3c c3 b4 ae 3d
       0.12290649 -0.011393109 0.014017361 0.08530571
000070 22 eb 6b 3d 32 92 8f bd c2 1d 74 bd a6 8a 9d 3d
       0.057597287 -0.070103064 -0.05959869 0.07692461
000080 65 35 7c 3d 4f 3a 15 3e dc 88 4b 3d 8c 46 29 3e
       0.06157436 0.14573024 0.049691066 0.16530818
000090 38 29 b9 3d 6d 4b 8c 3d 0f 8b df 3d 92 08 76 3d
       0.09041065 0.06850324 0.10915195 0.060066767
0000a0 e5 02 d9 3d 53 b7 8d 3d f5 7b 18 bc a8 ae 59 3d
       0.10596255 0.06919732 -0.009306897 0.05314508
0000b0 f3 e5 ac 3d 09 79 3f 3e f4 3b de 3d ce 54 e4 3d
       0.08442297 0.18698515 0.10851279 0.11148988
0000c0 5b 80 ad 3d 98 0b 00 3e e2 59 b0 3c 4d 88 45 3e
       0.084717475 0.12504423 0.021527234 0.19290276
0000d0 d6 3f 8b 3b a1 ea 69 3d 29 28 b2 3d de 13 f9 3d
       0.004249553 0.057108525 0.08699066 0.121619925
0000e0 38 d5 37 3d c6 c9 ca 3d 06 40 3a bc 31 dc b1 3d
       0.044881076 0.099017665 -0.011367803 0.08684576
0000f0 16 d6 66 3d 71 6f 61 3d a2 87 dd bc 86 4e ae 3d
       0.056356512 0.05503792 -0.027042214 0.08511071

arith.constant2 f4 [128]
000000 13 04 40 3d 31 37 e9 bc 93 0e 42 3a 27 3b ae bc
       0.046878885 -0.0284687 0.00074026844 -0.02126844
000010 d0 c1 ac 3c a7 54 15 3d 21 43 05 bc d9 8d b1 bc
       0.02108851 0.036457684 -0.008133681 -0.021674084
000020 03 5c 91 bd 42 09 3f bd 6f 7e a3 bd 18 b5 4d 3d
       -0.07097628 -0.04663969 -0.079831 0.050221533
000030 71 7c ab bc 8b 42 4e bd ad 10 8e 3c d8 18 8d bd
       -0.020933362 -0.05035643 0.017341936 -0.06889504
000040 97 a3 39 3d 32 f2 11 3d ee 89 25 3d ee 21 3d bc
       0.045322027 0.035631366 0.040414743 -0.011543734
000050 cd 21 b5 bc 30 c2 51 3d 2f dc 9f bd 39 4b c1 3a
       -0.022110844 0.051210582 -0.078056686 0.001474715
000060 bc 65 74 3c 03 bb 4c 3d 89 fa 35 bc 4f 06 c0 3c
       0.0149168335 0.049983036 -0.0111070955 0.023440508
000070 f7 74 cc 3c 00 ae 95 3c 34 fa 1b 3d 97 29 57 3c
       0.024958117 0.018271446 0.03808041 0.013132474
000080 1e 51 14 3b 0d 49 f0 3c a4 d4 06 bc a5 97 03 3d
       0.0022631357 0.029331708 -0.008229408 0.03212704
000090 9c 7b 1b 3d 16 ca 19 3d 0d 90 7a 3b 3f c1 db 3c
       0.03795968 0.03754624 0.0038232834 0.026825545
0000a0 64 42 1e 3d d1 7b 33 bc 43 12 a6 bb 74 2c c1 3c
       0.038637534 -0.010954813 -0.005068095 0.023580767
0000b0 1b be 09 3d 33 bb 01 3c 93 a7 41 3d bb 54 73 bc
       0.033628564 0.007918167 0.04727895 -0.014851744
0000c0 29 0e 71 bc 0f ff 25 bd b3 98 da 3c 0d ff d9 3c
       -0.014712849 -0.040526446 0.02668414 0.026610876
0000d0 2f 66 2a 3d 3e 44 9d 3c a8 34 94 3c 62 3c 5b 3d
       0.041601356 0.01919758 0.018091515 0.053524382
0000e0 09 41 0f 3d c7 a6 38 bc 87 58 b4 bc 63 e2 b0 bc
       0.03497413 -0.011270232 -0.02201487 -0.021592325
0000f0 dc 24 8d 3d 45 17 29 3c 49 f6 81 3d ee 68 d0 bc
       0.06891796 0.010320489 0.06345803 -0.02544066
000100 84 10 ed 3a 21 3d 31 3d bb d7 e7 3b e8 68 85 3d
       0.0018086587 0.043271188 0.0070752776 0.0651415
000110 e8 72 01 ba 6a 11 5f 3d 45 bb 44 bd 96 2a 19 3d
       -0.0004938082 0.054459967 -0.048030157 0.03739413
000120 78 16 40 bd 84 a9 84 3d ba 9e 55 3c ed 1d c9 3d
       -0.046896428 0.06477645 0.013038332 0.09820161
000130 57 9b 75 bc 87 01 c3 3b f2 74 a3 3c 3b 8b 0a bb
       -0.014990649 0.00595111 0.019953225 -0.0021140117
000140 1a e3 e7 3c bf 3e bd bb d4 ea d1 bc 5b 41 0d 3d
       0.028306533 -0.005775302 -0.02562467 0.034486156
000150 bf 99 bd bc f7 b1 35 bd 4b 58 34 3c e8 df 36 3d
       -0.0231446 -0.044359174 0.011007379 0.044647127
000160 79 22 fb bc 7d 54 6a 3c 8c 18 71 3d 1b 54 d3 bc
       -0.030656086 0.01430237 0.0588613 -0.02579694
000170 3d 37 35 3d 12 5a 97 3d f6 60 e3 bc 6c 63 7e 3b
       0.044242132 0.073902264 -0.027756196 0.0038816584
000180 e2 4f 37 3c eb 09 95 3d 0c 98 51 3d 66 5d 90 3b
       0.011188479 0.07277282 0.051170394 0.004405665
000190 4c 4f 6f 3d 01 8e b5 3a fd ad 22 3b 9f b0 08 bc
       0.058425233 0.0013851525 0.0024822943 -0.008342891
0001a0 fe 5a b9 3a 5c 55 f7 3c 65 b5 81 bc 0c e0 08 3d
       0.0014141498 0.03019207 -0.015833566 0.033416793
0001b0 b9 02 66 3d 94 8c 69 3d 3a 93 24 3d 3a 5c 76 3c
       0.05615494 0.05701883 0.04017947 0.015036637
0001c0 e6 42 41 bd 02 23 f6 3c 04 6a 0d bc 96 d0 d9 3c
       -0.04718294 0.03004599 -0.008631233 0.02658872
0001d0 e5 5d 1f 3c 5a 39 93 3c 4f 78 4b bc 2f 30 01 3c
       0.009726976 0.017971683 -0.0124188205 0.007885023
0001e0 72 f6 99 3d f6 a5 23 3d 2b 6f 01 3b 5d 41 ab 3d
       0.07517709 0.039953195 0.00197501 0.083620764
0001f0 76 5f a6 bb e2 9f d0 bc 0f 3e 8d bd a6 26 07 3d
       -0.005077298 -0.025466863 -0.06896602 0.032995842

arith.constant20 f4 [5, 64]
000000 d9 14 ca be aa 46 e6 3e ec f0 c2 3e d0 47 e8 be
       -0.3946903 0.44975787 0.38074434 -0.4536729
000010 06 a2 ee be 35 96 80 3e 1e de 3f bf d3 a9 3c 3e
       -0.4660799 0.251146 -0.749483 0.18424158
000020 29 7e fc 3e ac 92 c6 3e 98 df 64 3e fa e4 51 be
       0.49315003 0.38783777 0.22350919 -0.20497504
000030 e2 90 0c be e3 d6 3d bf 83 73 2f bf a8 5e 11 bf
       -0.13727143 -0.74156016 -0.6853563 -0.5678506
000040 bd 48 36 3e fe fb a4 3e 97 4f b0 be 33 03 02 be
       0.17801185 0.32223505 -0.34435722 -0.12696533
000050 a4 89 38 3e a4 15 25 bf 2d d7 38 3e 0a 66 29 bf
       0.18021256 -0.64486146 0.18050833 -0.66171324
000060 12 a8 43 bf ae 7d 31 bf 0b 0a 15 bf 62 6a 77 bd
       -0.7642833 -0.69332397 -0.5821845 -0.06040419
000070 57 f4 f5 3e 65 0e bb be a8 78 92 bd 1e bf 17 3e
       0.4803798 -0.3653442 -0.071519196 0.14818999
000080 4e 93 ef be 3b 25 91 3e f7 82 36 3e 77 00 e9 3d
       -0.46792072 0.28348717 0.17823397 0.11377042
000090 30 0c 1b bd e9 bb 39 be a7 d3 19 bf 6e 61 55 3e
       -0.03785342 -0.18138088 -0.6008858 0.20837948
0000a0 fd 9e 05 bf b2 1b 4f be 79 40 f8 be 94 80 5f be
       -0.5219572 -0.20225409 -0.4848669 -0.21826392
0000b0 42 b0 c9 3d 5c c2 8f 3e 0e 08 16 3e 92 6c 5b 3e
       0.09848072 0.28077972 0.1465151 0.21428135
0000c0 f8 69 87 be 37 e2 5d 3e 63 5a 05 3e 85 66 0c be
       -0.26448035 0.21668325 0.13022761 -0.13710983
0000d0 d3 1e af be f0 0d 82 3e e6 dc 36 3e e7 01 b5 ba
       -0.34203205 0.25401258 0.17857704 -0.0013809771
0000e0 5a 63 48 3e e1 54 82 3e d7 9c a7 be fc e5 ae 3e
       0.1956915 0.25455382 -0.32736847 0.3415984
0000f0 d0 93 ea be 6b ec 16 bf 9b 43 d8 3d a6 3d d2 be
       -0.45815897 -0.58954495 0.1055977 -0.4106266
000100 2d 54 b3 3e ea bb c6 3e a9 f4 10 3e c5 27 5a 3d
       0.3502516 0.38815242 0.1415583 0.053260583
000110 33 13 bb 3e 5d 06 c3 bd 5b b0 73 3e df 18 22 3e
       0.36538085 -0.09522698 0.23797743 0.158298
000120 5e 2a f1 be ef f7 47 bf bc 6d 11 3d 49 89 27 be
       -0.47102636 -0.7811269 0.03550504 -0.16360964
000130 d2 d0 10 bf 52 eb 28 3e a8 09 eb 3d 51 69 eb 3e
       -0.56568635 0.16496018 0.11476451 0.45978788
000140 02 f6 4b bd 19 6a 99 3e 48 4a 5e 3e 6c 25 30 3d
       -0.04979516 0.2996376 0.21708024 0.04300444
000150 35 2e 06 bf fa 17 e8 3d 77 d2 e3 bd 14 62 9a 3e
       -0.52414256 0.11332698 -0.11124127 0.30152953
000160 cd c5 be 3e 35 1d 0b 3e bb 0c 26 3e 49 bf ff be
       0.37260285 0.1358536 0.16215794 -0.49950626
000170 a3 4f 83 be 29 6f 78 bd 01 94 e5 be 35 84 ef be
       -0.25646695 -0.060652886 -0.4483948 -0.46780553
000180 8e 84 84 3e d5 97 e2 3d 92 6f 24 bf 12 ce d0 be
       0.2588238 0.11064116 -0.6423274 -0.4078222
000190 36 45 3f 3d 17 4d f2 be 87 97 2a 3f a2 52 a0 3e
       0.046696864 -0.4732444 0.6663746 0.31313044
0001a0 c3 10 a3 3d 98 1d b5 be 5f 8a 1f 3d 8e cf 00 bf
       0.079621814 -0.3537414 0.03895032 -0.50316703
0001b0 be ec 14 bf bb ae ab be c5 11 8b bd 98 1b ed be
       -0.5817374 -0.33531746 -0.06790499 -0.46310115
0001c0 3e 69 98 3d 40 c0 4c 3e d4 ba 06 3e d2 43 2e 3e
       0.07441948 0.19995213 0.13157207 0.17018059
0001d0 c2 b6 93 3e c6 5c e0 be e4 65 4d 3d c3 ca 54 3e
       0.2885037 -0.4382078 0.050146 0.20780472
0001e0 ca a7 d5 be 06 ab 9f 3b 03 88 36 bf 9e a8 c1 be
       -0.41729575 0.0048726825 -0.7130129 -0.37823957
0001f0 31 cb 79 3e a8 d3 b4 3e 05 29 85 be 64 b7 ff 3e
       0.24393918 0.3531773 -0.26007858 0.49944603
000200 28 b3 2e bf 63 62 1a bf 88 ab 19 bf b0 1f e5 be
       -0.6824212 -0.60306376 -0.6002736 -0.44750738
000210 a0 c4 c3 be d5 b4 8d be 2a b1 89 be f7 19 44 bf
       -0.3823595 -0.27677026 -0.26892978 -0.7660212
000220 d6 e4 e0 be 5e d2 fa be 6f 50 a5 3e a2 d1 b3 be
       -0.43924588 -0.48988622 0.32287928 -0.35120875
000230 d1 7e 6d 3e a1 b6 8c be 34 f8 ee be 9b ae 2d bf
       0.23192908 -0.27483085 -0.4667374 -0.6784455
000240 44 71 0d 3e 5e 4b 32 bf b3 2c b7 3e 3b 07 03 bf
       0.13812739 -0.6964625 0.3577629 -0.5118291
000250 9e a5 25 bf da ef eb be c0 3a 37 bf 6e c9 fd bc
       -0.64705837 -0.4608143 -0.7157402 -0.030979838
000260 6b 58 fc be 79 9f b0 3e a3 27 91 3e ab 5b 0c bf
       -0.49286208 0.34496668 0.28350553 -0.54827374
000270 d4 26 c0 3d e7 ce c5 3e 43 f2 ec 3e da 95 fe be
       0.09382406 0.38634416 0.4627858 -0.49723703
000280 b7 35 4c 3e 0b cb 22 bf e7 55 0d 3e 63 5d 5f bf
       0.19942366 -0.6359107 0.138023 -0.8725187
000290 00 86 5a 3e 10 48 0a 3e e3 b7 a9 be 0a 6c 99 bd
       0.2134018 0.13504052 -0.33148107 -0.0749131
0002a0 86 d8 4e bf 22 b1 d4 3e b9 09 18 3f 2e 48 45 be
       -0.8079914 0.41541392 0.59389836 -0.19265816
0002b0 4e 32 96 3e 9b 12 d3 be e3 9c 36 bf a4 dc 24 bf
       0.29335254 -0.41225132 -0.7133314 -0.6439917
0002c0 dc fe 4c bf e8 4f 09 bf 31 48 b9 3e 15 e7 3f bf
       -0.80076385 -0.5363755 0.3618789 -0.7496198
0002d0 be 67 b6 3e d3 22 98 3e 42 e1 34 bf 8f 7d fb be
       0.35626024 0.2971407 -0.70656216 -0.4911923
0002e0 2f 7d 95 3e 61 19 33 3e 4c 86 59 3e 72 5b b3 be
       0.2919707 0.1749015 0.21242636 -0.35030705
0002f0 80 e7 49 3e 6c 15 b6 3e 1b f8 76 3e 3a 2b 21 3e
       0.19717216 0.3556322 0.24118082 0.15739146
000300 07 ce ca be c9 d8 68 be 8b 58 d1 be 90 70 bf be
       -0.3961031 -0.22738947 -0.40887865 -0.37390566
000310 82 66 62 3e 59 a6 a0 3e b1 02 9b be af 15 6f 3e
       0.22109416 0.31376913 -0.3027549 0.23348115
000320 97 25 9d be 79 fe 9a bd b3 3d 02 bf 27 98 18 3f
       -0.3069274 -0.07568068 -0.50875396 0.59607166
000330 64 62 51 bf 83 cb a8 be 4e aa 94 3e 79 e4 79 3d
       -0.8179076 -0.32967767 0.29036182 0.061008904
000340 8d 22 77 bf d5 21 ed 3d 26 a0 0e bf 68 7e cf 3e
       -0.96537095 0.115787186 -0.5571312 0.40526128
000350 af 79 a6 be 45 4f b8 be e0 a5 07 3e d0 ec 37 3e
       -0.32514712 -0.35997978 0.1324687 0.1796143
000360 92 c9 ee 3e 15 59 38 bc f0 bc f6 be a6 9e e7 3e
       0.4663816 -0.011251708 -0.48191023 0.45238227
000370 d1 d0 4a be 15 27 86 bd 7d ab d2 be 12 ae 9a 3e
       -0.1980622 -0.06550423 -0.4114646 0.3021093
000380 d3 e3 d7 be e8 c5 6d bc c5 9c 1e 3e 11 e4 6b 3e
       -0.42166004 -0.014512517 0.1548949 0.23036219
000390 18 57 85 bf 52 74 51 3e 29 50 75 be d4 03 33 bf
       -1.0417204 0.20454529 -0.2395636 -0.69927716
0003a0 3a ae 10 3f e8 df dd bd 96 dc ba be 88 c0 f1 3e
       0.5651585 -0.10833722 -0.3649642 0.47217202
0003b0 2b 9b b5 3e 3c 9c 84 3e c5 eb 12 be 90 d8 1b 3e
       0.35469946 0.25900447 -0.14347751 0.15219331
0003c0 33 09 c9 3e a2 51 1f bf 62 af 7c be 02 1e 4b 3e
       0.3926483 -0.62233937 -0.24676278 0.19835666
0003d0 f1 bb 02 bf 6c 1d 8b 3d fc bd 38 be d4 3f f0 be
       -0.51068026 0.06792721 -0.18041223 -0.46923697
0003e0 c3 29 d2 be 70 cc d0 3e c6 d0 17 bf 63 bb 79 3e
       -0.41047487 0.40780973 -0.5930294 0.24387889
0003f0 30 31 67 bf b4 7f f5 be 16 03 4e bf 92 1d 11 bf
       -0.9030943 -0.47948992 -0.8047346 -0.56685746

tfl.pseudo_qconst i1 [64, 128]
000000 e9 bd e2 db 16 04 07 ef 0f d0 eb 23 f1 ed f0 ed
       -23 -67 -30 -37 22 4 7 -17 15 -48 -21 35 -15 -19 -16 -19
000010 b7 da 02 2e 19 f5 e4 57 a2 3e d5 2e cb e9 08 3e
       -73 -38 2 46 25 -11 -28 87 -94 62 -43 46 -53 -23 8 62
000020 07 4a 0a 3d b2 36 d5 fb 1b e7 b9 1c bb c7 28 15
       7 74 10 61 -78 54 -43 -5 27 -25 -71 28 -69 -57 40 21
000030 e5 f2 e1 06 27 9c fd 2a f9 e7 e1 ed 3b 35 39 c4
       -27 -14 -31 6 39 -100 -3 42 -7 -25 -31 -19 59 53 57 -60
000040 cb 13 8f 7f 19 3e db 1e e1 08 12 59 12 e1 c8 ce
       -53 19 -113 127 25 62 -37 30 -31 8 18 89 18 -31 -56 -50
000050 23 07 13 c5 1c e4 04 1c c6 31 ca d9 e1 1e e1 cc
       35 7 19 -59 28 -28 4 28 -58 49 -54 -39 -31 30 -31 -52
000060 b9 0d f8 3d 6a fe 17 29 fd 9e cb ff 38 30 26 f8
       -71 13 -8 61 106 -2 23 41 -3 -98 -53 -1 56 48 38 -8
000070 e3 59 46 e9 e8 48 f1 0c 35 37 fb 24 cc 01 c3 f1
       -29 89 70 -23 -24 72 -15 12 53 55 -5 36 -52 1 -61 -15
000080 df b6 2b 14 f0 26 17 09 5b e8 e8 1c 89 aa ca 1a
       -33 -74 43 20 -16 38 23 9 91 -24 -24 28 -119 -86 -54 26
000090 b8 02 0d 28 02 f7 07 1f dc 15 09 1f 96 f9 fa 12
       -72 2 13 40 2 -9 7 31 -36 21 9 31 -106 -7 -6 18
0000a0 16 25 38 ed b8 f2 f2 18 2f 22 a1 25 9d eb 19 fd
       22 37 56 -19 -72 -14 -14 24 47 34 -95 37 -99 -21 25 -3
0000b0 14 49 e9 0d 14 de 21 e8 2c 33 ee fe 17 26 f3 13
       20 73 -23 13 20 -34 33 -24 44 51 -18 -2 23 38 -13 19
0000c0 10 14 ec 4d c1 08 fd 02 09 f7 ee fa 09 cb df dd
       16 20 -20 77 -63 8 -3 2 9 -9 -18 -6 9 -53 -33 -35
0000d0 08 c9 c6 e8 22 ef da 27 10 4d bb 0b c9 02 22 17
       8 -55 -58 -24 34 -17 -38 39 16 77 -69 11 -55 2 34 23
0000e0 19 08 f5 c6 41 22 e1 0d 00 f3 e0 ec 44 1c f7 f4
       25 8 -11 -58 65 34 -31 13 0 -13 -32 -20 68 28 -9 -12
0000f0 ea 03 e8 de f8 1d bb 59 41 27 da 0c 81 0a ce b8
       -22 3 -24 -34 -8 29 -69 89 65 39 -38 12 -127 10 -50 -72

tfl.pseudo_qconst1 i1 [128, 34]
000000 12 24 ec 11 06 49 1d 4e e0 4c 03 06 18 1e dd 15
       18 36 -20 17 6 73 29 78 -32 76 3 6 24 30 -35 21
000010 1e 45 bb e9 ff 13 42 32 e0 bd 20 7f fa 4c f2 4c
       30 69 -69 -23 -1 19 66 50 -32 -67 32 127 -6 76 -14 76
000020 0e 32 08 19 f9 28 0c 17 eb 14 08 11 0b 0f 1b 5f
       14 50 8 25 -7 40 12 23 -21 20 8 17 11 15 27 95
000030 e4 35 21 56 e1 38 34 21 f3 ce 15 45 28 09 09 7f
       -28 53 33 86 -31 56 52 33 -13 -50 21 69 40 9 9 127
000040 03 e2 07 37 1e 08 06 29 2a f3 29 20 33 21 15 ea
       3 -30 7 55 30 8 6 41 42 -13 41 32 51 33 21 -22
000050 2c 16 23 1b 5b ff 10 f1 28 f6 f6 fb fe ec 7f f8
       44 22 35 27 91 -1 16 -15 40 -10 -10 -5 -2 -20 127 -8
000060 30 1d 3b 16 3d 2f 3f c4 aa de d4 ad 0f 46 26 e1
       48 29 59 22 61 47 63 -60 -86 -34 -44 -83 15 70 38 -31
000070 58 21 fb 27 3e 1a b4 bd b6 e2 f9 d0 57 2e 17 cc
       88 33 -5 39 62 26 -76 -67 -74 -30 -7 -48 87 46 23 -52
000080 9f 47 30 7f c5 11 ae 5b 46 bd fc c4 41 eb 14 17
       -97 71 48 127 -59 17 -82 91 70 -67 -4 -60 65 -21 20 23
000090 16 19 23 ed 11 1e ed 58 10 56 1d 4c 35 3a 1e 90
       22 25 35 -19 17 30 -19 88 16 86 29 76 53 58 30 -112
0000a0 f4 7f ee 03 09 34 bb ff b7 31 dd c7 11 f0 0a d4
       -12 127 -18 3 9 52 -69 -1 -73 49 -35 -57 17 -16 10 -44
0000b0 25 15 3c 41 d3 c7 24 02 e2 22 4c 2f ba eb e9 b7
       37 21 60 65 -45 -57 36 2 -30 34 76 47 -70 -21 -23 -73
0000c0 14 7f e5 a0 9e f7 fb 26 1b e6 09 1e 98 1d c0 15
       20 127 -27 -96 -98 -9 -5 38 27 -26 9 30 -104 29 -64 21
0000d0 90 14 e1 fb c2 02 08 03 cc fe 13 f8 9c 13 20 ec
       -112 20 -31 -5 -62 2 8 3 -52 -2 19 -8 -100 19 32 -20
0000e0 81 dc 19 bd da 21 a8 eb 2e fc fb ff d5 25 09 b1
       -127 -36 25 -67 -38 33 -88 -21 46 -4 -5 -1 -43 37 9 -79
0000f0 f3 ea d6 b1 d8 f0 ca d1 23 c4 16 b4 11 41 37 1e
       -13 -22 -42 -79 -40 -16 -54 -47 35 -60 22 -76 17 65 55 30
